PPO_TS_0/actor_00004140_00002.502.pth (torch, 125651 bytes, 7 tensors)

a_std_log f4 [1, 11]
00000000: 2e9f 8dbf ee29 63bf 7a68 abbf baf8 9bbf
00000010: cfaa 8cbf d3a9 9dbf 6d10 86bf fdc6 8cbf
00000020: 97c0 8bbf 7962 99bf 81dc 9bbf
-1.1064203 -0.88735855 -1.3391259 -1.218528 -1.0989627 -1.2317451 -1.0473763 -1.0998226
-1.0918149 -1.1983176 -1.2176667

net.0.weight f4 [128, 100]
00000000: b7d3 8ebc 6d64 da3d 08ed 1ebd 885e 0ebd
00000010: c396 59bd b13f 31bd e7df 023e aeae d23d
00000020: 9d09 953d 161b a23c f7ec c6bc 1b9e 913c
00000030: b0f2 8dbd c914 c9bd 8955 1ebe af8e b9bd
00000040: 24c9 c73c 91a1 ddbb 9372 f6bd 2834 a0be
00000050: ee0f 143d 7ed4 943d ade5 d8bb cbc6 0d3e
00000060: 68a3 3d3d 13f6 abbb 5454 613d 26ef d3bb
00000070: 5a34 753d 6615 553d 46bc 0e3d cb33 3c3e
00000080: 4bdf e8bd 7753 9bbd 625a bcbc dc0a 57bd
00000090: b87c c0bd f506 c8bd a904 fd3d 7907 083e
000000a0: 81f7 9c3d 4351 a8bd fbc8 aa3d f166 19be
000000b0: 3b94 10be 592c c23d d518 143e b196 603e
000000c0: c802 e9bd 716e 86bd e397 a43d e409 bf3d
000000d0: 5359 0b3d b966 3bbd 98d5 d73d e5ba aebd
000000e0: 7401 a53d 9905 f4bd 90b5 bebd 8a11 47be
000000f0: bd5f acbd 8aa0 603d f040 2abd 98e5 f7bc
00000100: 2059 6f3d a6e3 0cbe 3de1 0cbd 064e 663c
00000110: 56d1 d53d c420 9a3d a531 5fbd 6975 4dbd
00000120: 032d 9d3d 700d 063d e325 103e 22d8 553e
00000130: 408e bb3c e1b5 78be 2e51 b43d 1206 bebd
00000140: 8641 9dbd ba6e 473d b3dc e73d 0525 24bd
00000150: 378d 083e 7c01 733d 84e0 033c 9690 903c
00000160: 739f c53d 693f 40bd f884 78bd 577b e73c
00000170: 9cb0 02ba fc8e 3e3d c4e9 12be b9a2 e2bd
00000180: 5081 833d f4ef 76bc 2247 4ebd 7eb3 dfbd
00000190: 31ff 2c3e a4c5 0e3e eb91 33bd 24d7 aa3d
000001a0: badb 953c 3dd9 833d ba5c c0bd c841 88bd
000001b0: 9cab dfbd 4ef3 89bc 4f60 333c dc5c d93d
000001c0: 54c0 0cbd 9968 ff3d 4231 663d 0ccb 9dbd
000001d0: 18d4 db3c ce6e 893d 1cc7 8c3d e8d6 38bd
000001e0: 25f2 43bb d9ba 40bc ee51 f8bb fee6 e43c
000001f0: 112f abbd a43e 9abb bde5 3a3d 08bf c6bc
00000200: b4a6 76bd d960 fc3b 8a7f 1abe 3938 1cbc
00000210: 4e03 8dbd 6626 35bc c669 543e d70b f4bd
00000220: fc61 0dbe b6b2 b3bd d231 84bc 4b32 dd3d
00000230: dc55 293d c40a 64bb 3501 383d 76c2 a6bd
00000240: 8b6e ddbd 5e15 8bbd d15b b23c e39d 12bd
00000250: 067b 88bc f516 5cbe b46d 68be e8c4 18be
00000260: 2788 2c3d 1239 ba3d ff7b 0c3e b05f 99bd
00000270: 0414 343e e34d b0bd 4f2c b7bd 2de7 aa3c
00000280: 8233 34be f2fc 40be 51c2 f0bc 1ad2 19be
00000290: d059 ea3d 4292 72bd fb19 33bd 7c09 a33d
000002a0: ac2b 4bbe 0aee a9b9 ce46 f2bc 99d6 79be
000002b0: f1db ae3c 51cc 0e3d 802f 0bbe 10e4 1abd
000002c0: 7cdc a93d 6473 47bc d3c9 fc3d a9ff 05be
000002d0: e9fb eb3d 3f78 ffbc 6648 963d 2670 8e3c
000002e0: 904e 5d3e 6a25 dcbc 90f7 bc3d cdf6 9cbd
000002f0: 7316 90bd 8ae5 033e 9bc0 a13d 1788 8b3c
00000300: ecbe 92bd 8be0 eebc 3f72 1ebe 114f 93bc
00000310: b8c2 e0bd d197 4c3d 1739 42be 8a01 29bd
00000320: 0978 d83c ab60 2b3d cf92 95bd 5a62 a0bc
00000330: ea65 99bd 5ca5 acbb 2528 acbd b6f5 d53d
00000340: 5a98 333d 3282 1dbd 6096 8a3d 091a fcbd
00000350: f45e ed3d 6219 56bd 722a c53d 4cf9 673d
00000360: b4af babc 0b9f 1bbe d1fb 903d f859 e0bd
00000370: 3e92 43bc 0182 dd3d c8f5 dc3c 8a07 bebb
00000380: a65d a6b8 d53a 4d3d 1f29 b0bd c196 263d
00000390: 8aed 97bd 2e33 3fbd ca30 3c3c d5e7 b83d
000003a0: 4d1d b63d c3b9 9d3d 0463 a33d 8036 afbd
000003b0: 2148 4d3d 4645 2ebd ac5d 01be 905b e5bd
000003c0: 456f 81bc e645 983d c6f3 d9bd a2ad 80bc
000003d0: 9499 72bd 93c2 14be 48a2 e73d 80dd aabd
000003e0: 2100 e23d 8cb2 0bbd 709f b7bd 18c2 c7bc
000003f0: d5ea 5b3d 0eed 47bd 32cd d43b 298c 973d
-0.017434938 0.10663686 -0.03880027 -0.03475812 -0.053122293 -0.04327363 0.12780724 0.10287224
0.07277224 0.019788306 -0.024282916 0.017775586 -0.069310546 -0.098184176 -0.15462317 -0.09060418
0.024387904 -0.006763645 -0.12033572 -0.31289792 0.036148004 0.07267092 -0.0066191764 0.13845365
0.046298414 -0.00524784 0.055012062 -0.0064677177 0.05986438 0.05202236 0.03484752 0.18379132
-0.11370715 -0.07584279 -0.022992317 -0.05250059 -0.09398788 -0.09766952 0.123544045 0.132841
0.07664395 -0.082186244 0.08339115 -0.14980675 -0.14119045 0.09481115 0.14462598 0.21932484
-0.113774836 -0.06564034 0.080367826 0.09328058 0.034020733 -0.04575226 0.10538787 -0.08531741
0.08056918 -0.1191513 -0.09311974 -0.19440284 -0.08416698 0.054840602 -0.041565835 -0.030260846
0.058434606 -0.13758716 -0.03439449 0.014056688 0.10440318 0.07525781 -0.054490704 -0.0501608
0.07674601 0.03272766 0.14076953 0.2088323 0.022894979 -0.24288131 0.08804546 -0.092785016
-0.07678513 0.04868958 0.11321392 -0.040074367 0.13335119 0.059327587 0.008049134 0.017647069
0.09649553 -0.046935473 -0.060673684 0.028257055 -0.00049854233 0.04652308 -0.14346987 -0.11066193
0.06421149 -0.015071858 -0.050360806 -0.10922907 0.16894223 0.13942581 -0.04384033 0.08341816
0.01829325 0.06437919 -0.09392686 -0.06653172 -0.10921404 -0.01683965 0.010948255 0.10613415
-0.034363106 0.12471122 0.05619932 -0.07704744 0.026834533 0.067105874 0.068739146 -0.045126826
-0.0029898968 -0.011763298 -0.007578126 0.027942177 -0.083585866 -0.0047071744 0.04562925 -0.024261013
-0.060217574 0.007701975 -0.15087715 -0.009534889 -0.06885396 -0.011056518 0.20743474 -0.11916321
-0.1380691 -0.08774321 -0.016137037 0.10800608 0.041341648 -0.0034796456 0.044923026 -0.08142559
-0.108121 -0.06791185 0.021772297 -0.035795104 -0.016660225 -0.21493132 -0.22698098 -0.14918864
0.042122032 0.090929165 0.13719176 -0.07488954 0.1758576 -0.08608606 -0.08943998 0.020862186
-0.17597774 -0.18846491 -0.029389532 -0.15021554 0.114429116 -0.059221514 -0.04372595 0.079607934
-0.19840878 -0.00032411545 -0.029574778 -0.24398269 0.02134511 0.03486282 -0.13592339 -0.037815154
0.08294007 -0.012173507 0.123431824 -0.13085808 0.115226574 -0.031185267 0.07338028 0.01738746
0.21612 -0.02687331 0.09226906 -0.07664261 -0.07035532 0.12880531 0.07898065 0.017032666
-0.07165322 -0.029159805 -0.15473269 -0.017982038 -0.1097464 0.04994947 -0.1896709 -0.041261233
0.026424425 0.041840237 -0.07303392 -0.019578148 -0.07490142 -0.005268736 -0.084060945 0.10447256
0.043846466 -0.038454242 0.06766963 -0.12309653 0.115903765 -0.0522703 0.096272364 0.056634232
-0.02278886 -0.15197389 0.0707928 -0.1095466 -0.011936722 0.10815812 0.026972666 -0.0057992386
-7.93294e-05 0.050104935 -0.08601593 0.040671114 -0.07418354 -0.046679668 0.011486242 0.090285935
0.088923074 0.07701447 0.0797787 -0.08555317 0.050117616 -0.042546533 -0.12633389 -0.11199105
-0.015800128 0.07435207 -0.10642199 -0.015707795 -0.059228495 -0.14527349 0.113102496 -0.08343029
0.11035181 -0.034105822 -0.08965957 -0.024384543 0.05369075 -0.048810057 0.0064941877 0.0739978

net.0.bias f4 [128]
00000000: 58af fcbd 765d 1dbe a8c9 02bd 3ac9 11be
00000010: 7b32 68bd 5eee 02be b47f 4abe 1264 96bd
00000020: 79fb 2cbe 68db ccbd 8f3f eebd e968 fabd
00000030: dcc8 a53c 5a36 14be c0ba 2fbd 5f33 11bd
00000040: f8a6 18bd bb54 2abe 6c2a 3e3c 1a03 2fbe
00000050: ef00 98be c50a aebc c691 e2bc a81a 46be
00000060: cdf9 c9bd cfe9 82bd 8a54 5bbd d79c 60be
00000070: f540 29be 445e a4bd 22b6 54be 35ac e3bd
00000080: cb77 65be 425c 79be 5323 04be 30d2 38be
00000090: 3f56 79be aedb 03be c388 19be a495 13be
000000a0: 7c7e b2bd ebcd 5fbe b5eb 7bbd 3504 05be
000000b0: 7cb5 29be 57ca a9bd d359 3cbe d644 5ebe
000000c0: 1749 84be 2cf4 9d3c 9ebd 12be 93f5 adbd
000000d0: 7d13 1bbe 534e 6cbd 2a6d 75be efbd 1fbe
000000e0: 2f89 89be 67fe 18be d5e5 15be a232 11be
000000f0: 9cc5 0fbe 0072 abbe ff52 22be 28a3 ecbd
00000100: bd1d 88be 6a71 6ebb a142 1fbe 8538 8bbe
00000110: c70d 9bbd 20b2 38be fc18 003d bf7b 04be
00000120: 811c a5bd 1b08 7abd 57a9 c9bd 1907 11be
00000130: 1664 a1bc d069 943c 390b 5cbd 2cee e5bd
00000140: 0eae 8abd 22f6 86bc 62bc 15be f223 8fbe
00000150: d9fa 39be b216 39bd ee00 3fbe 2add 2fbe
00000160: 4547 edbd 88bc 84bc f3a8 ebbd 3f5e 97bd
00000170: b140 47be bca5 59bc b540 19be 4cdb 08be
00000180: be33 32be c393 c0bd c4ed e4bd a3a6 1ebe
00000190: f79d 33bd 3c4a fabc f020 dcbd 499c b1bd
000001a0: 258d 44be 7968 58be 703b c4bd 57d7 9bbd
000001b0: 40af ebbd 11fd 61bd 65af 92bd 02b6 31be
000001c0: 00b2 3abe 4100 99bd f412 1dbe 44a5 38be
000001d0: 55fc f4bd 6b35 56be f88e 28be fde7 a7bd
000001e0: 2b30 89be f220 90bd 9b70 7dbe a262 09be
000001f0: ab3c 52be 89ac b1bd dde0 24be 6684 36be
-0.12338132 -0.15367684 -0.031930596 -0.14236918 -0.056688767 -0.12786242 -0.19775277 -0.07343306
-0.16892804 -0.10002786 -0.116332166 -0.12227041 0.020237379 -0.14473858 -0.042902708 -0.035449382
-0.03726861 -0.16633885 0.011606794 -0.17091027 -0.29688212 -0.02124537 -0.0276574 -0.19346106
-0.09862099 -0.06392252 -0.05354742 -0.2193483 -0.16528685 -0.08025792 -0.20772603 -0.1111683
-0.22408979 -0.243516 -0.129041 -0.1804893 -0.24349307 -0.1287677 -0.14993577 -0.14412552
-0.08715531 -0.21855895 -0.061504085 -0.12989886 -0.16573137 -0.082905464 -0.1839364 -0.21705946
-0.25837013 0.01928147 -0.14330146 -0.08494105 -0.15144153 -0.057691883 -0.23967424 -0.15599798
-0.26862475 -0.14940797 -0.14638455 -0.14179471 -0.14040226 -0.33485413 -0.15851973 -0.11554557
-0.26585189 -0.0036383518 -0.1555276 -0.27191558 -0.07570987 -0.180367 0.031273827 -0.1293783
-0.08062077 -0.061042886 -0.09846752 -0.14162864 -0.019701045 0.018116862 -0.05372164 -0.11227068
-0.067714795 -0.016474787 -0.14622644 -0.27957112 -0.18162097 -0.04518766 -0.18652698 -0.17174211
-0.11585859 -0.01620318 -0.11506834 -0.07391023 -0.19458272 -0.013284143 -0.1496609 -0.13364905
-0.1740255 -0.09403183 -0.11178163 -0.15493254 -0.04385182 -0.030552976 -0.1074847 -0.08672387
-0.19194467 -0.21133603 -0.09581649 -0.07609432 -0.11508036 -0.055172984 -0.0716236 -0.17354587
-0.18231964 -0.074707516 -0.15339261 -0.18031794 -0.11962191 -0.20918815 -0.16460788 -0.08198545
-0.26794562 -0.07037534 -0.24749987 -0.13416532 -0.20530955 -0.086754866 -0.16101404 -0.17823943

net.2.weight f4 [128, 128]
00000000: 715b 03bd 66d2 4abd 8053 09be 7fc7 6fbd
00000010: af59 b6bb a9cb 0e3e eeb9 b93d e60b be3d
00000020: 3edb c1bd 0888 98bb 8a1d 1fbe 971f bb3c
00000030: 9a81 0fbd e799 d53d 8af5 ccbc c0a2 aa3b
00000040: e8ef c33c 124e 103e af0f 02be 80a0 78bc
00000050: 1e96 10bd eb23 43be 13ac e83d 9f98 36bd
00000060: a9bd 513d 12bb d73d 8c93 91bd 2c64 36be
00000070: 7c77 35bd 918e 08be 5530 8a3d 020f 95ba
00000080: d3e1 e73d ea40 59be 0cc8 1dbd 1639 993d
00000090: afc5 443d 88d8 d2bd c379 b6be b0ef aa3c
000000a0: 522a 963d a355 18be 3a18 abbc df2e 81bc
000000b0: 461f 793e 224b 923c 5f2d c6bd f35f b23d
000000c0: a769 56bd 2205 08be 9af4 023e fdcf 53be
000000d0: 2095 bf3c 4774 e83c f997 0e3d 2ddc acbd
000000e0: 69cd 0d3e c4c7 a6bd 2eed a23d 2b99 0b3d
000000f0: df84 813c c2a8 0e3d 5322 29be ea94 5d3d
00000100: b88c adbd ed41 f13c a5c0 c4bc d9a4 7fbc
00000110: 1332 783c 9bce dd3c 4e1e 28be 88e4 253d
00000120: 555e 5dbd b9ac aabb 0072 eabd 15c1 633d
00000130: 7b0f 6f3d 363f fcbd 9fee 36bd c259 b1ba
00000140: ddea ee3d beaf 9f3c 1abd 3b3d 3081 a3bd
00000150: 2eb3 fd3d 5592 243d 9b08 603a 8b3b 82bd
00000160: 1a11 bcbc 047e 883d b041 c63c 2103 b5bd
00000170: c569 f5bd 464f 5a3d 8391 eebd bc29 d3bd
00000180: 15ba 6abc 1c81 c13b 4830 97bd a172 cdbd
00000190: 38ad 13be 21bb 9d3c c332 393d e791 82bd
000001a0: 555f 933d ed33 0f3e bf7d b73d 6bf1 95bd
000001b0: 1283 583b 4b4d aebe 8727 9ebd ce67 8bbc
000001c0: 2c0b 0bbe 836c 053a 0fc3 b1bd fdcd 8c3d
000001d0: 7475 f7bd 6302 813d bcd9 c2bd 9ac6 603d
000001e0: 69ad 16bc f162 0b3e 29d7 debb 53c0 1ebe
000001f0: f87f cbbb 291b 993c f872 b83d 75a9 f7bd
00000200: 612c d63a 88b9 953c e7c8 8f3c 23ea 14be
00000210: 322e e93d 2a15 80bd b286 adbd 3ce4 323e
00000220: c99d b6bc 6061 a63c 1b6a 84be ba46 33be
00000230: 1288 b1bd a0bd 5fbe 86d4 25be 7eab debd
00000240: 2f54 95bb 3a9d e13c e11a 94bd 0f4f 743c
00000250: 2e44 e0ba 7548 073d 447b 163d aae9 f83c
00000260: f831 84bc c38c 253e 2ffa f8bd 8915 913d
00000270: 9cf2 c2bd 24bb 14bd 04b1 ad3d 49ae 71be
00000280: 7a26 2cbe 0d6c 153e 728c af3d a892 4cbe
00000290: 8021 663c 86c0 0fbd da15 aa3d 1818 bf3c
000002a0: bdbe ac3c c6fb 953d c202 2bbe ee90 4bbe
000002b0: bcc8 643d 333a 173e 97f4 bc3d 3a2a 2abe
000002c0: e778 3d3d 458d 1d3c 13be 76bd e386 0ebe
000002d0: 4b34 c6bd f1f8 bb3d ae74 8f3b 5c2f 45be
000002e0: 8d65 813d 805d 1c3d 2e52 923d bb89 16bd
000002f0: 84c3 43bd f2bb bbbc 35db e2bd 8cf8 9ebe
00000300: e360 233c 32e9 a0bc eb4a 91bd a81a 50bd
00000310: 4a95 b4bb 1e53 1bbe 2e0d c43b c3d6 36bd
00000320: aabc debd 2dc1 09be 0404 02bd 82b5 523d
00000330: 0142 9bbe 1639 2d3d 48e3 da3d 2db7 e5bd
00000340: 9efd 2bbd 11a4 0e3c cd89 d1bc d83c 7eba
00000350: 59da 89bd bbbe 783d c206 843d 207d d4bc
00000360: 8d3b ccbd df8d 23be 4c4b a13d 727b 4dbe
00000370: 45bd 28bc 91a8 0dbe c31b 5d3c ca13 173e
00000380: d8ee bb3d b27c 4dbd d8b7 953d f863 f3bd
00000390: 6161 753d f0c2 21be b4c5 55be d7a7 2a3d
000003a0: e3db 58bd f196 fb3d c926 9cbd 5354 803d
000003b0: ab2a 6a3c 74f3 c03c b969 9c3d 547e 99bc
000003c0: 273b aa3d 627c 47bd 3ac1 e1bd 2f3e 62bd
000003d0: 429e 2fbe 62d9 033e b034 66be 21c3 dfbb
000003e0: d279 c8bd 0bc3 bf3d d188 d93c d289 e13d
000003f0: c1a5 40be 2b2a 823d a481 3f3e bb82 ffbd
-0.032069627 -0.049517058 -0.13410759 -0.058539864 -0.0055648903 0.13944878 0.090686664 0.09279613
-0.09465645 -0.004654888 -0.15538612 0.022842212 -0.035035707 0.10429745 -0.025019426 0.0052073896
0.023918107 0.14092281 -0.12701295 -0.015174985 -0.035299413 -0.1905667 0.113609456 -0.044579145
0.051206265 0.10533728 -0.071082205 -0.1781165 -0.044303402 -0.13335635 0.067475 -0.001137227
0.113223694 -0.21216169 -0.038520858 0.074815914 0.04804009 -0.10295206 -0.35639772 0.020866245
0.07332291 -0.14876418 -0.020885576 -0.01576942 0.24328336 0.017858092 -0.096766226 0.08709707
-0.05234685 -0.13283208 0.1278862 -0.2068481 0.023386538 0.028375758 0.0348129 -0.08440433
0.13847889 -0.08143571 0.07955395 0.03408162 0.015810428 0.03482891 -0.16517 0.054097094
-0.084741056 0.029450381 -0.024017641 -0.015603268 0.015148657 0.027076056 -0.1641781 0.040501148
-0.05404504 -0.0052085784 -0.11447525 0.05560406 0.058364373 -0.12316744 -0.04466116 -0.0013530778
0.1166589 0.01949298 0.04583464 -0.07983625 0.123876914 0.040178616 0.0008546204 -0.06359013
-0.022957373 0.066646606 0.024201244 -0.088384874 -0.119830646 0.053298257 -0.11648848 -0.103106946
-0.014326592 0.0059052836 -0.07382256 -0.10031629 -0.14421546 0.01925427 0.045214426 -0.06375485
0.071959175 0.13984652 0.08959531 -0.073214374 0.0033037108 -0.34043345 -0.07722383 -0.017017271
-0.1357848 0.0005089717 -0.086797826 0.06875227 -0.12082949 0.06299283 -0.09514186 0.0548769
-0.009196618 0.13611962 -0.0068005514 -0.15503053 -0.0062103234 0.018689709 0.090063035 -0.12092868
0.001634013 0.018276945 0.017551852 -0.14542441 0.11385764 -0.06254037 -0.08472957 0.17469877
-0.022292035 0.020310104 -0.25862202 -0.17507449 -0.086685315 -0.2184968 -0.16194353 -0.10872553
-0.0045571546 0.027540792 -0.07231689 0.014911427 -0.0017110163 0.033028085 0.03673865 0.030384857
-0.016137108 0.16166978 -0.12157094 0.07084186 -0.0951893 -0.036311284 0.08481029 -0.23601641
-0.16811553 0.14592 0.0857171 -0.1997782 0.014046073 -0.035095714 0.08304949 0.023326918
0.021087045 0.073234126 -0.16700271 -0.19879505 0.055855498 0.14768295 0.09226339 -0.1661767
0.04625788 0.009616201 -0.060239863 -0.13918643 -0.09677943 0.09178341 0.004377923 -0.19256347
0.063181974 0.038175106 0.07144581 -0.036752444 -0.04779388 -0.022916768 -0.11076967 -0.31049
0.00997183 -0.019642446 -0.070943676 -0.05080667 -0.0055109607 -0.15168425 0.0059830165 -0.044638406
-0.108758286 -0.13452597 -0.03174211 0.05144263 -0.30323794 0.04229077 0.10687882 -0.11216579
-0.041989915 0.008706109 -0.025578404 -0.00096983975 -0.067311 0.06072877 0.064466015 -0.02593857
-0.09972296 -0.15972088 0.0787569 -0.20066622 -0.010299032 -0.13833834 0.013495388 0.14753643
0.09176415 -0.050167747 0.07310456 -0.11884302 0.05990732 -0.15797019 -0.20876199 0.04166397
-0.052944075 0.12284649 -0.07624585 0.062660836 0.014292399 0.023553587 0.076373525 -0.018736996
0.08312064 -0.048702605 -0.11023183 -0.055235084 -0.17150214 0.12875894 -0.22481036 -0.006828681
-0.097888604 0.09363373 0.026554497 0.11012615 -0.1881323 0.06355699 0.18701798 -0.12476107

net.2.bias f4 [128]
00000000: f1be 3bbd 447c 14bc 6da7 abbd c3d6 aebb
00000010: bceb 89bc 53d8 cfbd 2d70 b53d a5ab 6ebc
00000020: 9a78 febd bf4f 35bd c76a 20bd 4d9f 5c3c
00000030: 9a2a 063d 5c75 7a3d 2391 9cbc 9e4d 17bd
00000040: f4e7 b43d bceb 383c 29b5 713c daa7 a83d
00000050: 49f9 a9bd fe95 f33c 3e68 0dbd 67a8 1dbd
00000060: a95c e4bb 1f12 74bc a50f 923d e057 78bc
00000070: 0082 2dbc 0819 60bd 0a5a a33c 9713 cf3d
00000080: e67b a93d 2970 cbbd 7f24 833d c2cf 53bd
00000090: 9714 b93c 63ae b7bd 7a7d 2b3d 1ed0 ab3c
000000a0: 28ab 213e 26af a43c e2b5 73bc 4653 62bd
000000b0: ff6b e03c 5039 383c f40a 9b3d 435b cebd
000000c0: faf2 85bc 3a6f 24bd 3679 803d 6361 233d
000000d0: 16e8 a9bd 6d5d da3d 02d2 0f3b 07a1 da3d
000000e0: 2c33 8c3d cdbe 31bd 0e78 90bd f38d 293d
000000f0: 1e4c 03bc 507f 1e3c 1095 a63d 28a7 313d
00000100: ac4d a93c 1501 17bd 2458 9f3d 8984 bebd
00000110: bbb5 94bd d9fa 91bd 65ff 2a3d 6ea6 f23c
00000120: 861a abbb c45a 203d 0354 6cbd fa93 cb3d
00000130: 57e9 833c aae9 e1b9 3253 a43d 8301 5fbc
00000140: 8d08 03be 782c 3dbd 5467 53bb 1c7f 34bb
00000150: 2bfb 473d b14f 333d 89a9 e83c 5743 b83c
00000160: f531 b23d 5738 123d 255b 8f3d 16ff f0bc
00000170: 96a4 20bb 1e83 87bd c4f5 8c3d 4588 383c
00000180: 3f2c 0b3e 7f0b 993d ca46 d83c 4c5f d73c
00000190: 4671 b8bc bc61 223d 58d9 57bd 5d65 523d
000001a0: 5915 903b fec3 6abc e4f5 5abc 4b0a 39bd
000001b0: 3ba3 b2bd 389b 903d b4a7 da3b 9221 5fbc
000001c0: c418 a4bd 5881 8d3c 187e 2d3d 1b41 7dbc
000001d0: 39f0 7bbc cc11 473d f8ef 52bb b712 fa3c
000001e0: 96b0 65bd b9f1 8abd 9af3 bc3c ba66 103e
000001f0: 801e bc3d 1876 64bd 4028 37bc b195 01bc
-0.045836393 -0.00906283 -0.08381543 -0.00533566 -0.01683604 -0.101486824 0.088592865 -0.01456729
-0.12425347 -0.044265505 -0.03916433 0.013465715 0.03275547 0.06114708 -0.019112175 -0.036939256
0.08833304 0.011286672 0.014752665 0.0823514 -0.082995005 0.029734608 -0.03452324 -0.03849068
-0.0069690538 -0.0148968985 0.0713189 -0.01515767 -0.010590076 -0.05471137 0.019940395 0.10111158
0.08275585 -0.09933502 0.064034455 -0.051711805 0.022592826 -0.089688085 0.04186771 0.020973261
0.15787947 0.020103049 -0.014874907 -0.055255197 0.027395247 0.011244133 0.075704485 -0.100760005
-0.016351212 -0.040145136 0.06273119 0.039887797 -0.0829622 0.10662351 0.0021945243 0.10675245
0.06845698 -0.043394852 -0.070541486 0.04139514 -0.008013753 0.009673908 0.081339 0.043372303
0.02066692 -0.036866266 0.07780483 -0.09302623 -0.07261225 -0.071279235 0.04174747 0.029620375
-0.0052216677 0.03914906 -0.057697307 0.09940334 0.016102476 -0.00043089438 0.08023681 -0.0136112
-0.1279623 -0.046184987 -0.0032257633 -0.0027541583 0.048823517 0.04377717 0.028401153 0.022493048
0.08700935 0.03569826 0.06999806 -0.02941851 -0.0024512163 -0.066168055 0.068828136 0.011262958
0.13591097 0.07472896 0.026400942 0.026290558 -0.02251495 0.039643988 -0.05269751 0.0513662
0.004397076 -0.014328955 -0.013364289 -0.04517583 -0.0872254 0.070608556 0.006672824 -0.013618844
-0.08012536 0.01727359 0.04235658 -0.015457417 -0.015377098 0.048600957 -0.003218649 0.030526502
-0.05607661 -0.06784386 0.023065377 0.14101687 0.09185505 -0.055776685 -0.01117903 -0.007909224

net.4.weight f4 [11, 128]
00000000: 3cc7 18bd fe43 763d 01fd 0d3e a915 96bb
00000010: f8a8 c7bd 5cb5 443c fa04 1bbe cc09 343e
00000020: 3271 803d 2167 303c 9831 3abd 4317 f2bd
00000030: de3e f0bd 4b61 67bd 9063 063e fc49 fb3d
00000040: cfbf 603d 4497 e23d 18bb e23c 9f17 5e3b
00000050: 6a33 85bd b443 93bc 2801 313d 4cfd c93d
00000060: 6138 8a3d 8a1f c93d e94f acbd 1309 04be
00000070: bb2c e2bc 7cb7 e53c 4c2b cc3d 4674 dcbc
00000080: 2ca7 41be e059 843d 2338 a4bd 8fba cc3d
00000090: 15e0 b83c ecc8 8c3d 2f5e 763d 867b 11be
000000a0: 9bf9 a0bd f4d4 d5bc adbb c73d 214b e53d
000000b0: b342 9bbd e9fa a63d 4174 f43d 4c45 8fbd
000000c0: 5f69 c3bd 396a 69bd 2972 fa3d b7dc ca3c
000000d0: e1da 143d 526b 9cbc 63a9 d1bd 8b31 8d3d
000000e0: 8c5f 6a3c e8db 6a3d 7c8c 98bd e08f 2abd
000000f0: 9cfa 843d a7b8 313e 83a0 8e3c fff4 b83c
00000100: 69d6 55bb f709 2a3d 6a89 763d 108e 4e3d
00000110: 582e bebc 6c7b 523d 6659 fabd baf0 9abd
00000120: 583e b9bc 3d42 003e 3117 0d3e cfd1 85bd
00000130: 1038 663d b10c 18bd f677 02be 94e4 093a
00000140: 914f 623d 0725 9137 243c e2bc 9359 0b3e
00000150: a313 c53c 303f c03d ec41 b73c b8ee beba
00000160: 7c6b 08bc a014 0d3e 5619 d3bd 0b94 583d
00000170: eff3 973d c3e4 5e3e 2f6b f4bc 0ff1 933d
00000180: 114e 0fbd e462 68bd 58b3 81bd 8bbd 0dbc
00000190: 1229 e5bc 2752 ca3c 9987 863d e503 4cbd
000001a0: 26b6 973d 2c76 75bd 9905 c03d 44f0 50bd
000001b0: 5534 c13d 7b01 1abe 31ca b93d d20d 0d3e
000001c0: 5477 9fbd 6e17 113d 7558 413d adad a23d
000001d0: 7a6f 833d 5dd5 1dbd 48eb 1ebd 5029 0bbe
000001e0: bc18 44be 6d43 76bd 059f 0bbc 9639 83bd
000001f0: 47be 8ebe bcda ae3c 9729 a5bd 9b70 2cbe
00000200: 3d7a 0fbe efe0 c83d 6f54 b33d 142a f1bd
00000210: a6db 12be 64a4 a2bd 9023 abbd e321 0fbc
00000220: b0d2 413c e827 91bd 1af0 e23d 1c30 893d
00000230: 5d0d 55bd 8d73 103d 76de 6abc d98e a63d
00000240: 70c6 0bbe b481 0a3d 8bcf 313d 3a46 903d
00000250: 2a53 e3bd 54c0 163e e408 f53d ddd1 95bd
00000260: 9f27 f73d 6f2c 9f3c 60cb b7bc b2c6 e23d
00000270: a3f1 233e b6a0 2c3e a559 253e 55b5 edbd
00000280: b64e 293e 797b 0e3d c27a bc3d 7f49 6a3e
00000290: 7ce8 893c 5e47 8e3d 994e f4bd 0818 60bd
000002a0: cc97 7ebe 8740 12be 9d3f 5d3d aa5d 903d
000002b0: 21e4 973d c610 ba3d 471c 9f3c 2175 c4bc
000002c0: 9256 a5bd bb7e 493d e963 cc3c 5b88 663d
000002d0: ddba 0a3d ed9f 6cbd f9ba afbc 83ff 33bd
000002e0: e053 5fbe afca 89bd 07fc f13d f37c 343d
000002f0: 1c17 33bc 639e 43bd 000c c03d 48a7 0c3e
00000300: 1bf1 3abe 4211 b93d 457a f0bd 1ad6 48be
00000310: 2335 5dbd a95e fb3d 2095 9cbc 0dd5 fb3c
00000320: ca34 363e 8f89 2cbe 043f 343e 09af ffbb
00000330: 5515 633b e612 b3bc 03dc e8bd e5af 09be
00000340: e1c5 a2bc 277a 10be 4881 db3d 8476 30bd
00000350: b40e 393d 8aab d8bc 9d04 ae3d 68ac bfbd
00000360: 3615 37ba 74d6 40be 454b 35bc 2517 233e
00000370: af03 32bc 42ae 843d c046 f93c f0fe abbd
00000380: d9db 5c3d e6b9 3b3e c61d 293e a0c9 c73d
00000390: d949 42bd 3861 9d3d a156 d33d b601 a2bc
000003a0: 2a44 493c e208 063d 46b8 953d 6781 e1bd
000003b0: b4e1 4ebd 41a6 1bbe ee56 50bd 9616 8dbd
000003c0: e3ec f1bd b384 853e 0533 d4b8 9b08 b83d
000003d0: b34b ec3c ca04 efbd 948e 03bd 037f 713d
000003e0: 20a4 a53d 4b2e 18bd afeb 483e f639 37bc
000003f0: 2910 db3d d6d5 b2bd e7d5 8e3c c5da 15bc
-0.03729938 0.060123436 0.13866045 -0.004580219 -0.09749025 0.01200613 -0.15138617 0.17581862
0.0627159 0.010766775 -0.045457453 -0.11820843 -0.11730741 -0.05648927 0.13123918 0.12269971
0.054870423 0.11064008 0.027677104 0.003388859 -0.06503947 -0.01797662 0.043213993 0.09862766
0.06749035 0.09820469 -0.08413679 -0.12894087 -0.02760922 0.028041594 0.09969196 -0.026910912
-0.18911427 0.06462455 -0.0801852 0.09996521 0.022567788 0.0687426 0.060148414 -0.14207277
-0.078601085 -0.02610252 0.09752593 0.1119597 -0.07581081 0.08153326 0.11936236 -0.06995639
-0.09541582 -0.056986067 0.122288056 0.024763448 0.03634155 -0.019094143 -0.10237386 0.06894215
0.014305007 0.057338625 -0.0744867 -0.041641116 0.064931124 0.17355596 0.017410522 0.02257776
-0.003262902 0.04151341 0.060189642 0.05042845 -0.023215458 0.051387236 -0.12224083 -0.07565446
-0.022612736 0.12525268 0.13778378 -0.065341584 0.05620581 -0.03712148 -0.12741074 0.0005260196
0.05525166 1.730259e-05 -0.027616568 0.13608389 0.024057215 0.09387052 0.022370301 -0.0014566993
-0.0083264075 0.13777399 -0.10307567 0.05287556 0.074195735 0.21766953 -0.029836265 0.07223713
-0.03498656 -0.056734934 -0.06333035 -0.008651148 -0.027973685 0.024697376 0.06568832 -0.0498084
0.07407789 -0.05992715 0.09376068 -0.051010385 0.0943381 -0.15039627 0.09071768 0.13774803
-0.07786432 0.035422735 0.0472035 0.07943282 0.06417747 -0.038533557 -0.0387986 -0.13589978
-0.1915006 -0.060122896 -0.0085218 -0.06407468 -0.27879545 0.021344535 -0.08064573 -0.1683983
-0.14011474 0.09808528 0.08756339 -0.11775604 -0.14341602 -0.07941511 -0.083563924 -0.008736107
0.011830017 -0.0708769 0.11080952 0.06698629 -0.052014697 0.035266448 -0.014335265 0.08132715
-0.13649917 0.0338151 0.04341082 0.07044645 -0.11099847 0.14721805 0.119645864 -0.07315419
0.12068104 0.019430367 -0.022435844 0.110730544 0.16010146 0.16858181 0.16147478 -0.11606852
0.16533932 0.03478572 0.09203102 0.22879599 0.01683449 0.06947206 -0.11929054 -0.054710418
-0.24862593 -0.14282428 0.054015744 0.07049115 0.07416559 0.090852305 0.019422663 -0.023981633
-0.080731526 0.049193125 0.024949985 0.056282382 0.033869613 -0.057769705 -0.02145146 -0.043944847
-0.2180934 -0.06728112 0.118156485 0.044064473 -0.010930803 -0.04775847 0.09377289 0.13735688
-0.18256037 0.09036495 -0.11742071 -0.19612923 -0.054005753 0.12273914 -0.019114077 0.030741239
0.17793575 -0.1684935 0.17602164 -0.0078028482 0.0034650166 -0.021859597 -0.11370089 -0.13446005
-0.019869747 -0.14109097 0.10718018 -0.043081775 0.045180038 -0.026448984 0.08496974 -0.09359056
-0.00069840567 -0.18831807 -0.011065309 0.15926798 -0.010865136 0.064785495 0.030429244 -0.08398235
0.0539206 0.18332633 0.16515264 0.09755254 -0.047433708 0.07684559 0.103192575 -0.019776206
0.012284318 0.032723315 0.07310538 -0.1101101 -0.050508216 -0.1520014 -0.050864153 -0.068890736
-0.11812761 0.26077804 -0.00010118451 0.08986016 0.02884469 -0.11670835 -0.032118395 0.05895902
0.08087945 -0.037153523 0.19621156 -0.011183253 0.10696442 -0.08732192 0.017435981 -0.009146397

net.4.bias f4 [11]
00000000: d0a6 2f3d 7c47 b13c 8e17 233d 48ce bb3c
00000010: b735 3c3d 4fc4 07be ef56 623d c2d0 2dbc
00000020: a09e 04bd d019 7ebd 74a9 9bbb
0.042883694 0.021640532 0.039817385 0.022925511 0.045949664 -0.1325848 0.055258688 -0.010608854
-0.03237784 -0.062036335 -0.004750425
