PPO_TS_0/actor.pth (torch, 125651 bytes, 7 tensors)

a_std_log f4 [1, 11]
00000000: 45cd 8cbf f930 63bf a1e0 a9bf 5bf1 9cbf
00000010: dfed 8bbf 75e8 a0bf 6f2f 87bf 5026 8dbf
00000020: 3d97 8dbf 2bd6 97bf 093a 9bbf
-1.1000143 -0.887466 -1.3271676 -1.2261156 -1.0931967 -1.257094 -1.056135 -1.1027317
-1.1061779 -1.1862234 -1.2127086

net.0.weight f4 [128, 100]
00000000: 3d98 9ebc 3508 d53d 6b34 21bd 8ffa 1ebd
00000010: a3ef 4bbd 6691 36bd 0549 003e 32c3 cd3d
00000020: f5ea 983d da28 973c 0573 cebc e658 963c
00000030: 6b6d 8fbd 5f60 c7bd 0484 1dbe d099 b7bd
00000040: 6930 c43c 584e c4bb c087 f8bd 29e9 9ebe
00000050: 4d27 033d 5151 8b3d 1fc9 2bbc 3a4d 0a3e
00000060: 0650 223d 5540 2bbc ed4c 523d 62cd 28bc
00000070: dc3b 633d 1be5 3a3d f09e 073d aeef 3a3e
00000080: a9cf ecbd 7674 9ebd b566 b7bc 0f27 5dbd
00000090: 327d c2bd 912f c9bd 6ff8 fa3d 74ed 063e
000000a0: e3b3 963d a441 aebd a76c a23d ad5e 1abe
000000b0: 3ede 11be 257d c83d 781c 113e 3b05 5e3e
000000c0: 23e6 ebbd 99f0 89bd 7a69 a73d 6626 ba3d
000000d0: f974 173d e552 45bd 2bed df3d 55e8 b7bd
000000e0: 3dc6 a53d 698d f3bd 7e3a c8bd f909 44be
000000f0: a40d abbd 8c28 613d 29dc 2bbd 00e7 f8bc
00000100: bec9 6b3d dc41 0dbe d6ce 10bd 60b0 613c
00000110: ea08 d63d 0053 983d 97ff 5abd 5c53 55bd
00000120: ed3e a33d 93d7 ff3c cba3 123e a1e4 543e
00000130: 7db2 c43c 49f0 79be 499e af3d 7cda bcbd
00000140: 1633 a0bd ad2a 4b3d 0ff8 e63d 74bf 26bd
00000150: 8681 063e 96b7 793d 4d40 033c 5731 8e3c
00000160: b7dc c03d 004e 48bd 2f5a 7ebd cd66 d33c
00000170: 8a9c a6ba 85dc 333d c90c 15be 72ff e8bd
00000180: 734a 7f3d e611 90bc 3b42 4ebd 5311 e7bd
00000190: 262f 2b3e 167c 0d3e 9cf1 48bd ec84 a13d
000001a0: 2c1c 8f3c 606c 763d 927d c7bd bb0a 8dbd
000001b0: 24a7 dfbd 61d4 b4bc f74a 3b3c 0cd7 d73d
000001c0: da85 03bd c080 ff3d 78ee 5c3d 4874 a0bd
000001d0: 7aac d53c ee6d 8a3d c0c6 8a3d 39bd 3dbd
000001e0: 1361 bf3a 0145 19bc 805e 99bb 54dc ee3c
000001f0: 4e01 abbd 7108 9cba c0d4 483d cb00 a2bc
00000200: 3100 6cbd 329f 8e3b cc5f 1abe 1b78 1abc
00000210: 3234 92bd c090 56bc 630f 543e 4f73 f9bd
00000220: d08e 0fbe 7e6c b1bd 1305 7ebc a83d de3d
00000230: 65e2 263d 0ed6 e3bb 1300 373d 3676 a8bd
00000240: 755e e1bd 9b18 8ebd 413e 9a3c 736c 21bd
00000250: 2a30 9bbc cb5a 60be 2cea 65be 4efa 14be
00000260: 15ab 333d c59a c13d 3324 0e3e 124d 99bd
00000270: c013 373e b56b a9bd a03f b7bd 2ced af3c
00000280: 8302 31be 332e 40be ea7e d7bc 3501 19be
00000290: 80e5 ed3d 55ec 67bd d727 2fbd 13e1 a63d
000002a0: c295 46be 223a c739 d884 fcbc f640 7abe
000002b0: ff60 c63c 16ba 0a3d 96ce 0cbe 8d9d 20bd
000002c0: f3ca a83d d1d8 42bc 5764 f83d 2853 09be
000002d0: 746e eb3d 203a 0bbd 41d2 943d 4b85 913c
000002e0: 7e93 5e3e 239f debc afca b83d 37b5 a0bd
000002f0: 4f39 93bd 69b7 033e 4248 a23d 7373 893c
00000300: 6e12 8dbd dca8 e9bc dba0 18be b460 89bc
00000310: 27aa dfbd 79b1 4b3d c8c0 40be f5da 18bd
00000320: 9e78 ef3c 8e85 413d 494a 9bbd 6a31 94bc
00000330: aec5 9abd 0864 44ba 9c8c a6bd 97e0 d93d
00000340: d06e 393d 36b4 10bd a62f 8f3d 3d17 fabd
00000350: 6fe7 f23d c64e 50bd 6d8b c93d 4009 6b3d
00000360: 9362 a3bc 660e 1cbe 4daf 9a3d 4820 d6bd
00000370: d607 3abc 09ab e73d ce54 e63c 04ec cbbb
00000380: e19e 7bbb 5f7f 453d 5c10 b4bd 8b4c 203d
00000390: 8a82 98bd 1993 3cbd 4238 ef3b d96e b33d
000003a0: e99c b23d 87b3 9b3d 117c 9d3d 76fc b1bd
000003b0: 8468 503d 42aa 26bd 78cc 00be a3c8 eabd
000003c0: e867 8cbc c770 973d 0b3c dbbd 5c64 7cbc
000003d0: df25 72bd 733b 14be 8c1f e53d f56d aebd
000003e0: 30e4 db3d 3c59 09bd 5978 c4bd c419 ddbc
000003f0: 3f4d 5b3d 7dda 42bd 1fb0 153c c5b0 923d
-0.019359702 0.10401956 -0.03935663 -0.03881317 -0.049789082 -0.044572257 0.12527855 0.10046996
0.074666895 0.018452097 -0.02520133 0.018352937 -0.07003292 -0.09735178 -0.15382391 -0.08964884
0.023948865 -0.0059907846 -0.12135267 -0.31037262 0.032019902 0.06802619 -0.010484963 0.13506022
0.039627098 -0.01045235 0.051342893 -0.010302873 0.05547701 0.04562865 0.03311056 0.18255493
-0.115630455 -0.07737057 -0.022387842 -0.053992327 -0.09496535 -0.09823526 0.12254416 0.13176519
0.073585294 -0.08508614 0.0793088 -0.15075178 -0.14244935 0.097894944 0.14171016 0.21681683
-0.115185045 -0.067353435 0.08174415 0.09089355 0.03697679 -0.048174758 0.10933908 -0.08979861
0.080944516 -0.11892206 -0.097767815 -0.1914443 -0.08352211 0.05497031 -0.041958008 -0.030383587
0.057565443 -0.13794655 -0.035353504 0.013774961 0.10450919 0.07437706 -0.053466406 -0.05208145
0.079709865 0.031230723 0.14320295 0.2079034 0.024010891 -0.24408068 0.085751124 -0.0922136
-0.07822244 0.049601246 0.11277782 -0.040709928 0.13135347 0.060966097 0.008010936 0.017357511
0.09417098 -0.04890251 -0.062097725 0.025805855 -0.0012711447 0.043911476 -0.14555658 -0.11376847
0.06232686 -0.01758666 -0.05035613 -0.11282601 0.16717204 0.13816866 -0.04905854 0.07886681
0.017469488 0.06016195 -0.097407475 -0.06886812 -0.109205514 -0.022073926 0.011431447 0.10539064
-0.032110073 0.12475729 0.05393836 -0.07834679 0.02608322 0.06759249 0.0677619 -0.046323035
0.0014601074 -0.009354831 -0.0046804547 0.029157795 -0.08349858 -0.0011904371 0.04903102 -0.019775769
-0.05761737 0.0043524737 -0.15075606 -0.009428049 -0.07138862 -0.0130960345 0.20708995 -0.121801965
-0.14019322 -0.08663271 -0.0155041395 0.10851604 0.04074325 -0.0069530075 0.044677805 -0.08225672
-0.110043444 -0.06938287 0.018828513 -0.039410066 -0.018943865 -0.21909635 -0.2245261 -0.14548609
0.04386433 0.09453348 0.13880996 -0.07485403 0.17878628 -0.082724966 -0.089476824 0.021475397
-0.17286114 -0.18767624 -0.026305635 -0.14941867 0.11616039 -0.05662187 -0.042762604 0.08148398
-0.19393066 0.0003799955 -0.030825064 -0.24438843 0.024216173 0.03386887 -0.13750681 -0.039212752
0.082418345 -0.011892513 0.12128513 -0.13410628 0.11495677 -0.03399098 0.07266665 0.017763754
0.21735951 -0.027175492 0.09023034 -0.07847064 -0.07188665 0.12862934 0.07923938 0.016778683
-0.06888281 -0.028522901 -0.14905111 -0.016769744 -0.10921126 0.049729798 -0.1882354 -0.03731819
0.02923232 0.04724651 -0.07582528 -0.018089969 -0.07557236 -0.00074917125 -0.08132288 0.1063854
0.045271695 -0.035328113 0.0699151 -0.122114636 0.11860549 -0.050856374 0.098410465 0.05738187
-0.019944465 -0.15239868 0.07552967 -0.10455376 -0.011354407 0.11311919 0.02811661 -0.0062232036
-0.003839426 0.048217174 -0.08792183 0.039135497 -0.07446773 -0.04603872 0.0073004076 0.08761377
0.087213345 0.076026015 0.076896794 -0.08690731 0.050880924 -0.040689714 -0.12577999 -0.1146405
-0.01713939 0.073945574 -0.10704812 -0.015404787 -0.059118148 -0.14475803 0.11187658 -0.085170664
0.10736883 -0.033532366 -0.09593267 -0.026989825 0.053540464 -0.047571648 0.009136229 0.07162622

net.0.bias f4 [128]
00000000: e9ab 02be dd77 20be 0ede f8bc 5d61 16be
00000010: e213 70bd df6b 04be c0dc 47be a5ce 95bd
00000020: ab6e 2dbe 3cda cebd 8fe8 e7bd d1c9 fdbd
00000030: d17b 8b3c dafe 12be fa71 25bd cc2a 14bd
00000040: 8cf0 15bd 215f 2bbe ae4c 493c 6330 2ebe
00000050: 514a 97be d5f8 b9bc 7e93 00bd b852 47be
00000060: d2f4 c3bd 215e 84bd cb41 61bd 2830 66be
00000070: a219 28be 7708 9fbd 946d 51be d22f e5bd
00000080: 5b2d 69be 68d2 7abe 9850 04be 27b4 36be
00000090: 1222 77be c5fa 04be 7a1d 1bbe 02d5 11be
000000a0: c9e7 afbd c137 5ebe c1d8 73bd 6ba2 03be
000000b0: c6f4 2abe 75b6 a4bd c625 3dbe 5b7a 5dbe
000000c0: e229 85be dc6c ab3c 66e6 16be 6f3d adbd
000000d0: 369f 1abe 5dff 6ebd e4d3 73be ea4b 1dbe
000000e0: 0262 8abe 71fb 18be 7dc8 15be 65f1 12be
000000f0: 9c7b 14be 0dde aabe 0ca7 25be 7ed9 eebd
00000100: 19c7 88be b7e8 22bb 02f0 1fbe 8bf6 8abe
00000110: fa6c 9bbd ffcc 38be 345b 043d 1497 06be
00000120: 10e9 a1bd 1dd9 7cbd 8230 c2bd 2adb 12be
00000130: 7035 a1bc f372 863c 25d9 5dbd 2eba e6bd
00000140: fb3b 89bd 1f8a 7fbc 73c7 14be 4282 8ebe
00000150: 0e33 3abe 6bcb 32bd ab66 3bbe 866f 2bbe
00000160: 33c1 f3bd 2c6d 75bc 3194 f0bd e53d 94bd
00000170: fb9d 46be fa1c 64bc d2eb 19be ce19 07be
00000180: c720 33be 9c1b cabd 16ca e7bd 0be3 1dbe
00000190: 1de1 30bd 343e ecbc 5c10 d9bd 5024 aebd
000001a0: 6053 43be e5bf 5bbe 485d c0bd c2ea 9dbd
000001b0: 2cf8 e9bd d0b3 4fbd d750 91bd db98 32be
000001c0: 1db6 3abe bbb5 96bd 4160 1abe dcb5 36be
000001d0: baf7 f8bd adc2 53be 7161 27be bb0b a9bd
000001e0: c708 89be 1a6c 8abd cfaf 7bbe 7c20 08be
000001f0: 0801 51be 32b6 aebd 8121 25be 6349 36be
-0.12760891 -0.15670724 -0.030379321 -0.14685579 -0.05861271 -0.12931775 -0.19517803 -0.07314805
-0.16936748 -0.10100219 -0.11323654 -0.12392009 0.017026814 -0.1435503 -0.0403919 -0.036173627
-0.036606357 -0.16735508 0.012286348 -0.17010646 -0.29548886 -0.02270166 -0.03139066 -0.19465148
-0.0956818 -0.06463266 -0.054994386 -0.22479308 -0.16416028 -0.077652864 -0.20451957 -0.111907616
-0.22771208 -0.24494326 -0.12921369 -0.1784216 -0.2413409 -0.12986286 -0.15147963 -0.14241412
-0.085891314 -0.21700956 -0.059532885 -0.12854926 -0.16694936 -0.080426134 -0.1847144 -0.21628706
-0.26008517 0.020925932 -0.14736328 -0.08458983 -0.15099797 -0.058349002 -0.23811299 -0.1536099
-0.270279 -0.14939667 -0.14627261 -0.14349897 -0.14500278 -0.33372536 -0.16177005 -0.11662577
-0.267144 -0.0024857947 -0.156189 -0.27141222 -0.07589145 -0.1804695 0.03231354 -0.13143569
-0.07905781 -0.061730493 -0.094819084 -0.14341417 -0.019678801 0.016412234 -0.054162163 -0.1126598
-0.067008935 -0.0155968955 -0.14529209 -0.27833754 -0.18183538 -0.043651026 -0.18300883 -0.16741762
-0.11902084 -0.014979642 -0.11747015 -0.07238368 -0.19396202 -0.013922924 -0.15031365 -0.13193437
-0.17492972 -0.09868547 -0.11317842 -0.15418641 -0.043183435 -0.028838255 -0.105988234 -0.0850302
-0.19074774 -0.2145992 -0.09392792 -0.07710792 -0.11424288 -0.050708592 -0.07095497 -0.17441122
-0.18233533 -0.07358881 -0.1507578 -0.17842811 -0.12156625 -0.20679732 -0.16345765 -0.082541905
-0.2676451 -0.067589 -0.24578784 -0.13293642 -0.2041055 -0.08530845 -0.16126062 -0.17801432

net.2.weight f4 [128, 128]
00000000: 41e1 fabc a4df 31bd 3f96 08be 6888 84bd
00000010: 6c9e 8ebb a580 0c3e 083e bb3d 79ec c73d
00000020: c494 cabd 9f09 8ebb 4828 1ebe 1e44 c63c
00000030: f956 22bd e552 d63d 2984 90bc 414f ad3b
00000040: e5d5 a23c 26f5 0d3e 2e22 02be c820 66bc
00000050: 99d0 18bd d559 46be 531d e03d 79a5 2cbd
00000060: ab5c 503d 8b76 df3d 3626 8fbd 894e 2fbe
00000070: 1c5c 4abd 9a46 0cbe b1ff 903d cc8a 243b
00000080: f55d e33d cdbf 5cbe dccb 21bd e212 a23d
00000090: 9b37 4e3d 552e dabd 7d52 b6be ecc4 a73c
000000a0: 8fd0 8d3d debb 19be 2260 cebc 8ec7 92bc
000000b0: bc36 793e ad4b b63c 03db bfbd 6114 b03d
000000c0: 9cbb 5dbd 125b 0abe d4cf 063e 820f 55be
000000d0: eb9a d03c c4dd ed3c 440b 043d 8083 b3bd
000000e0: 71f3 093e 1322 aabd baac a13d 106d 023d
000000f0: dc2e 673c f4a5 0c3d 8cb0 27be 4aa6 503d
00000100: 7cf4 b0bd 08d8 d93c 2337 dcbc 591d 65bc
00000110: 4cb8 563c 1591 c83c 3814 27be a532 213d
00000120: 5fa9 67bd d679 17bc 4c34 f0bd b596 683d
00000130: f67d 753d a327 ffbd b57f 27bd 77ac 86ba
00000140: 9790 e73d e58b ab3c 3cb3 3d3d 41a1 a0bd
00000150: 96b4 013e 25d9 1d3d 549c fe39 83af 84bd
00000160: 2868 b9bc 6280 873d 3db4 c73c c969 aebd
00000170: 4c1d f1bd 667d 5f3d e49f e5bd 3648 d4bd
00000180: f869 57bc 51a0 1a3b 41b4 99bd 402a c4bd
00000190: 1f7e 13be cc42 c43c 2018 4f3d 5e6f 8abd
000001a0: c0a7 973d 6a4c 0c3e 81ec b93d bd04 8ebd
000001b0: 2719 f33a 926e adbe 743a a2bd 75e2 60bc
000001c0: 0cb8 0ebe 7f39 503b 2c22 b5bd 03fd 913d
000001d0: ffdd e8bd 2738 843d 21f5 c3bd d39d 613d
000001e0: f1a7 04bc 4cd4 0c3e a1c6 b3bb bd26 1abe
000001f0: 851a 9abb 3bcc 973c 3bed b93d 8ab7 efbd
00000200: 53cd 793b 00e6 a83c f630 9f3c 3251 13be
00000210: b863 e83d 1293 81bd 7979 b2bd 3bfa 343e
00000220: 4dfc c4bc 5e6a c03c 203d 85be 934d 33be
00000230: 1418 acbd c84c 60be 180d 26be 1cbf d8bd
00000240: 84c2 67bb 5c44 e63c e4e5 8bbd 4424 ae3c
00000250: 9cf3 5b38 e8ca 073d d68e 133d 77d3 ed3c
00000260: 14e3 43bc 5cfd 253e 249b f6bd 3310 973d
00000270: 2d6e c3bd a820 0dbd 8653 b13d 9592 70be
00000280: 5a94 2cbe 533c 153e d09f b43d 2988 4ebe
00000290: bcf9 813c f0b9 0dbd 2cdc ae3d a239 cc3c
000002a0: eccb c93c 3b9f 973d d1b8 2cbe 04cc 48be
000002b0: 16c0 693d 7d36 183e 71a2 c03d 8046 2abe
000002c0: c86f 4a3d 9541 1d3c 6613 82bd 6770 0bbe
000002d0: 9e90 c2bd 4697 c13d 1356 1c3b fd5b 44be
000002e0: 60b9 843d a7c2 183d f6cb 8e3d a318 11bd
000002f0: c9eb 36bd d76c 9ebc 3734 e1bd f773 9ebe
00000300: ac04 1b3c 8d22 97bc dd94 89bd bfa3 49bd
00000310: 7531 9cbb cc3a 19be 69c2 773b 137e 41bd
00000320: 9d40 d9bd df0a 08be f38a 06bd 6ccf 523d
00000330: c7e1 9abe 3936 393d 5036 d93d 220d eabd
00000340: 017d 2bbd ed7a f03b d9af e9bc e5b3 46bb
00000350: a943 7fbd 1f40 763d 9eea 873d decd b7bc
00000360: 5faa cdbd 33f4 25be adfa a43d 2d19 4bbe
00000370: c95d 4cbc d8c9 0cbe d995 6b3c 7674 183e
00000380: 1644 c13d ac8d 51bd c392 943d 4afd edbd
00000390: 00cc 823d 417b 23be de98 57be c45a 233d
000003a0: 973a 54bd 1031 fa3d 7bfe 9bbd 224e 813d
000003b0: 8519 653c 86a0 c43c f31e 9d3d 46d9 59bc
000003c0: f8eb a73d 64b3 46bd 0ebb dcbd 3aff 67bd
000003d0: 1746 2fbe ed50 063e 23f3 61be ab64 f7bb
000003e0: 2f03 c3bd 9c7b c33d 0cd7 e33c 578a e23d
000003f0: abdb 3dbe 1ab2 843d 88e2 3e3e 3d4d 02be
-0.030624988 -0.04342617 -0.13338564 -0.0647133 -0.0043523815 0.13720949 0.09142691 0.097619005
-0.09891656 -0.004334643 -0.15445054 0.024202403 -0.039633725 0.104650296 -0.017641144 0.005288989
0.019877383 0.13863048 -0.12708351 -0.014045902 -0.03730831 -0.19370206 0.10943093 -0.042149995
0.050869625 0.10911282 -0.0698971 -0.17119803 -0.04940425 -0.13698807 0.07080019 0.0025107143
0.11101905 -0.21557541 -0.039501056 0.07913758 0.050346 -0.106533684 -0.3560981 0.020479642
0.06924545 -0.15013072 -0.025192324 -0.01791742 0.24337286 0.022252882 -0.09367945 0.08597637
-0.054133996 -0.13511303 0.13165218 -0.20806697 0.025464496 0.02903641 0.032237306 -0.08765316
0.13471772 -0.083072804 0.07894273 0.03184229 0.014110293 0.034337953 -0.16375941 0.050939836
-0.08640382 0.02659227 -0.02688176 -0.013984048 0.013105463 0.024483243 -0.16316307 0.03935494
-0.05655801 -0.009245357 -0.11728725 0.05678435 0.05993458 -0.12458732 -0.040893275 -0.0010274787
0.11306875 0.02094073 0.04631351 -0.07843257 0.12666544 0.038537163 0.0004856313 -0.06478789
-0.022632673 0.06616284 0.024377936 -0.08516271 -0.11773166 0.05456295 -0.11212137 -0.10365336
-0.0131478235 0.0023594091 -0.07505084 -0.09578371 -0.1440358 0.023957632 0.050560117 -0.06759523
0.07405043 0.13701025 0.09078313 -0.069344975 0.0018546925 -0.3387342 -0.07921305 -0.013725867
-0.13937396 0.0031772552 -0.088444084 0.07128336 -0.113704674 0.06456023 -0.09568239 0.055082154
-0.008096681 0.1375286 -0.005486325 -0.1505384 -0.0047028684 0.018530002 0.09078451 -0.11704929
0.0038116768 0.020617485 0.019432526 -0.14386442 0.11347145 -0.063268796 -0.08714575 0.1767358
-0.024046088 0.02348822 -0.26023197 -0.17510061 -0.0840303 -0.2190429 -0.16215932 -0.10583326
-0.0035363743 0.028108768 -0.068309575 0.021257527 5.2440548e-05 0.03315249 0.03602489 0.029031498
-0.011955995 0.1620993 -0.120413095 0.07376137 -0.09542499 -0.03445497 0.08658509 -0.23493417
-0.16853467 0.14573793 0.08819544 -0.20169128 0.015866153 -0.034601152 0.08538088 0.024929825
0.02463337 0.07403418 -0.16867377 -0.19609076 0.057067953 0.14864536 0.09405983 -0.16628456
0.04942301 0.0095981555 -0.06351356 -0.13617097 -0.0950024 0.09452681 0.0023855015 -0.19175716
0.0648067 0.03729501 0.06972496 -0.035423886 -0.044658456 -0.019339008 -0.10996287 -0.3094785
0.009461563 -0.018449092 -0.067178465 -0.049228426 -0.004766638 -0.14963835 0.0037805086 -0.047239374
-0.10608027 -0.13285397 -0.032847356 0.051467344 -0.3025038 0.045217726 0.106060624 -0.11428286
-0.04186726 0.0073388726 -0.028526234 -0.0030319628 -0.062320385 0.060119744 0.066365466 -0.022437032
-0.10042261 -0.16206436 0.08055625 -0.19833823 -0.012473532 -0.13748872 0.014378988 0.14888176
0.094368145 -0.0511605 0.07254555 -0.11620577 0.06386566 -0.15964986 -0.21054408 0.039881483
-0.051813688 0.12216389 -0.07616898 0.06313731 0.013983135 0.024002325 0.07671919 -0.013296431
0.08199304 -0.048510924 -0.10777865 -0.056639887 -0.17116581 0.13116808 -0.22065406 -0.0075498424
-0.095220916 0.09545061 0.027812503 0.110615425 -0.18540828 0.06479283 0.18641102 -0.12724777

net.2.bias f4 [128]
00000000: 8c4c 3bbd a893 04bc 8085 afbd 20cf 01bc
00000010: b569 88bc 53d8 cfbd 9a35 bb3d f1d8 66bc
00000020: 5caf fbbd a83d 3dbd bced 1bbd b1a4 733c
00000030: 413c 053d 5c75 7a3d 2391 9cbc 9a53 1abd
00000040: a6fe b43d 2ebe 3c3c f8a8 693c d82f a83d
00000050: 77aa a2bd 407d fc3c 4176 0dbd 5080 11bd
00000060: 650a 04bc 876c 4cbc 7d73 8f3d 4570 78bc
00000070: 475e 26bc d4cb 65bd 0a5a a33c b73e ce3d
00000080: 43fb a43d 2970 cbbd 52ba 813d 1e7f 50bd
00000090: aa19 c13c 78e8 bbbd f824 263d 1ed0 ab3c
000000a0: 2650 213e 2294 ae3c b108 88bc 425e 64bd
000000b0: a63c e83c 7d83 d83b c076 9c3d e53c ccbd
000000c0: 0853 83bc 3a6f 24bd 753c 823d 6361 233d
000000d0: 16e8 a9bd 2a0e dc3d 04dd 1239 fb87 d93d
000000e0: 7321 903d 9fd8 3cbd e63b 92bd f38d 293d
000000f0: c9f6 eebb 9538 263c a5ce a53d 3af6 393d
00000100: ac4d a93c 59dc 09bd 070a 9f3d d6be bfbd
00000110: 1bbd 8ebd 8cf5 91bd c7c6 273d 8ec6 df3c
00000120: 373b 02bc 1763 243d c7f4 65bd 2680 cf3d
00000130: 0f6a 8d3c c383 d33a cae0 a03d 8fdc 4dbc
00000140: 8d08 03be 0474 39bd 560f 7bba 0d42 67bb
00000150: 5e6d 473d 340f 2e3d e1cb f63c 26b8 bb3c
00000160: f65e ad3d 3d15 123d dc30 8f3d 0abb f3bc
00000170: c74f 86bb 4aff 87bd f931 8a3d 49a0 143c
00000180: cf06 0b3e 6524 993d aa43 c93c e1e6 d73c
00000190: 7561 b5bc 3d5e 213d 97f6 55bd f397 4c3d
000001a0: 7b52 363b af16 76bc bec3 3abc 6456 36bd
000001b0: 5dc5 b1bd bbd8 8f3d 572a c33b f056 64bc
000001c0: df99 a2bd 52d3 9b3c f410 253d 35df 7bbc
000001d0: cb30 7ebc a792 523d f51b 26ba 4aaa fb3c
000001e0: b2f2 62bd b9f1 8abd ecb4 ca3c ba66 103e
000001f0: 159b be3d 31fa 6bbd f710 34bc c9fb ddbb
-0.045727298 -0.008091845 -0.08570385 -0.007922918 -0.016651968 -0.101486824 0.09141083 -0.014089809
-0.122893065 -0.046201378 -0.038068518 0.014870808 0.032528166 0.06114708 -0.019112175 -0.037677385
0.08837633 0.011519952 0.014261477 0.082122505 -0.0794267 0.030821443 -0.034536604 -0.03552276
-0.008059119 -0.012477047 0.070044495 -0.015163486 -0.010154313 -0.05610259 0.019940395 0.10070556
0.08055737 -0.09933502 0.06334366 -0.05090248 0.023571808 -0.09175199 0.0405626 0.020973261
0.1575323 0.02131087 -0.016605707 -0.055753954 0.028349232 0.0066074715 0.07639837 -0.09972552
-0.016030803 -0.040145136 0.063591875 0.039887797 -0.0829622 0.10744889 0.0001400598 0.10621639
0.0703763 -0.046105023 -0.07140331 0.04139514 -0.0072926027 0.010145326 0.08096055 0.045400836
0.02066692 -0.033657406 0.077655844 -0.09362571 -0.06969663 -0.071269125 0.040961053 0.027316358
-0.007948688 0.040133562 -0.05614164 0.10131864 0.017262487 0.001613729 0.07855375 -0.012564792
-0.1279623 -0.045276657 -0.00095771754 -0.0035287172 0.048688285 0.042494968 0.030126514 0.022914957
0.08465378 0.035664786 0.06991741 -0.029752273 -0.0040988657 -0.066404894 0.06747813 0.009071418
0.13576816 0.07477645 0.024568398 0.026355209 -0.022141198 0.039396513 -0.05223712 0.049949598
0.0027820158 -0.015020057 -0.011399208 -0.044515982 -0.08680222 0.0702376 0.005955975 -0.013936743
-0.07939505 0.019021664 0.04029937 -0.015373041 -0.015514563 0.05140939 -0.00063365634 0.030720849
-0.055407234 -0.06784386 0.024744473 0.14101687 0.09306923 -0.057611648 -0.010990373 -0.0067744

net.4.weight f4 [11, 128]
00000000: 8071 23bd 465f 813d 8311 103e affc 94bb
00000010: 54b8 cabd 5cb5 443c d875 1dbe 10f5 373e
00000020: 087a 833d 59a8 113c 6504 1dbd b3b8 f6bd
00000030: a85f fabd 4b61 67bd 9063 063e 5dfc 003e
00000040: b6a2 503d 6d45 e43d 1a59 fe3c 2800 b5ba
00000050: 9cc9 88bd 86fc 99bc bf1f 2e3d faea c73d
00000060: 2832 8d3d 083a c93d 6b7d a6bd 0345 05be
00000070: 9e4f b9bc 577c 033d 4c2b cc3d 741e fcbc
00000080: deed 40be e059 843d 29e0 a0bd a70d ca3d
00000090: 3d1c c23c a8af 8f3d f529 8a3d 867b 11be
000000a0: 6ca2 a5bd ebe5 d0bc 8575 ce3d 0d55 e73d
000000b0: 1ce4 95bd ff8c a53d d81a f93d 6a62 8fbd
000000c0: 07f9 c5bd 396a 69bd f1b3 f53d b7dc ca3c
000000d0: e1da 143d 7591 aebc 581b d2bd d589 8f3d
000000e0: 1403 193b 431e 773d f976 a1bd e08f 2abd
000000f0: 132b 873d 1e2a 353e 6dbd 9e3c 8c93 c83c
00000100: 69d6 55bb 8fa2 1a3d b60b 7b3d 6878 4b3d
00000110: e41e dbbc 7eea 543d 5483 f6bd 6dfd 8dbd
00000120: 3121 b4bc 3784 013e f0b3 0d3e 28c4 8ebd
00000130: 65d2 6e3d 9031 1ebd 6c0d 06be a33c 7939
00000140: 914f 623d e57a 81bb 0c13 febc 0311 083e
00000150: 28ce c33c 7e26 c43d 07c9 bf3c 4bf9 6eba
00000160: b08a 0cbc 95e8 0b3e 6c68 c8bd f639 783d
00000170: 9187 8f3d 9211 603e 8ca9 e8bc e55b 9f3d
00000180: 0334 06bd a87d 58bd d8c8 85bd 67ea d8bb
00000190: d98f f5bc 4374 de3c b07f 7f3d 2888 4cbd
000001a0: 4e4e 953d 231f 7cbd cf14 bd3d b125 51bd
000001b0: 7955 c73d 359c 19be 2f65 b63d 6074 0e3e
000001c0: efd6 99bd f937 053d 73d4 403d 252e a93d
000001d0: 18af 8d3d b3d1 11bd 3f75 15bd 6c4e 0cbe
000001e0: 4dba 42be 6d43 76bd ee03 26bc 9639 83bd
000001f0: 3ac8 8fbe 6071 ac3c b6b8 abbd de14 29be
00000200: c927 11be 8ebe d03d c4f2 ba3d 4b06 f8bd
00000210: 0d65 15be 64a4 a2bd 875f a8bd cfd2 25bc
00000220: ed28 2e3c ebe4 8fbd a14e ee3d a502 873d
00000230: c2fd 22bd 8d73 103d 76de 6abc 577e a23d
00000240: 750b 0dbe dfe3 043d 15fc 2d3d a6c2 8e3d
00000250: f575 e8bd e667 1a3e 6ab5 ec3d a5b3 98bd
00000260: 33c4 f43d b0c0 a23c cace c9bc b58a e73d
00000270: f42d 293e c7c0 293e a559 253e 9aff f1bd
00000280: 1bd4 313e 797b 0e3d 7966 ba3d 094e 6d3e
00000290: 6adc 933c 1774 923d 5f59 f4bd 0818 60bd
000002a0: e6cd 7fbe d525 15be 292c 513d e74a 963d
000002b0: ff0e 9e3d 0d53 b03d 798b 893c 6ddd cfbc
000002c0: 2e2b afbd bb7e 493d 4e3c c63c 5b88 663d
000002d0: ddba 0a3d 26c0 69bd 936b babc b46d 34bd
000002e0: 7ea1 5fbe b7ed 8cbd 60a8 f73d f37c 343d
000002f0: 26d4 26bb 0aab 44bd e2ff b93d a3c0 0b3e
00000300: 1bf1 3abe 4a7f c03d 278b fabd e9e9 49be
00000310: b283 44bd 4451 f63d c0fc 54bc cf12 e43c
00000320: 8fcd 353e 372c 2cbe fc6d 353e 4af0 1cbc
00000330: 0788 ff3b 39e9 9ebc ba89 e5bd 552f 08be
00000340: e1c5 a2bc 3f42 13be 58dc dc3d bfec 2ebd
00000350: 24ea 493d 3ebb a9bc c3de ac3d 89ed c7bd
00000360: 697b ca38 f05f 41be b1bc 62bc 4188 253e
00000370: 47ee 2bbc a3b7 7f3d 3c11 da3c 4a1a aebd
00000380: 8460 553d 76a7 3b3e ec18 2b3e 5cbc c03d
00000390: 95d9 41bd c361 9d3d 7678 d13d e6fb 60bc
000003a0: 316d 093c 6c7f 123d ccee 8e3d de3f e9bd
000003b0: 41d1 55bd 3175 19be 41a3 4abd e16a 8cbd
000003c0: f803 f8bd 2545 853e a1aa cb39 c7e0 be3d
000003d0: fa52 ea3c 0854 f0bd d3aa 07bd 60e4 853d
000003e0: b3e3 a83d 4b2e 18bd 5895 4a3e f639 37bc
000003f0: cc3a e33d 85c1 b7bd 8b30 b53c d5d0 75bc
-0.039903164 0.06317 0.1406918 -0.004546724 -0.09898439 0.01200613 -0.15376985 0.17964578
0.0641976 0.008890235 -0.03833427 -0.12046947 -0.12225276 -0.05648927 0.13123918 0.12596269
0.050936423 0.111460544 0.031048346 -0.0013809251 -0.06679079 -0.01879717 0.042510744 0.09761615
0.06894332 0.09825522 -0.0812939 -0.13014607 -0.022620972 0.032101 0.09969196 -0.03077624
-0.18840739 0.06462455 -0.07855255 0.09865885 0.023695106 0.07015926 0.06746284 -0.14207277
-0.0808762 -0.025500258 0.10081009 0.11295519 -0.07318899 0.080835335 0.12163323 -0.07001193
-0.09666639 -0.056986067 0.11997212 0.024763448 0.03634155 -0.021309594 -0.10259122 0.07008711
0.0023347782 0.060331594 -0.0788402 -0.041641116 0.06600013 0.17691848 0.019377435 0.024484418
-0.003262902 0.037752684 0.061290465 0.049675375 -0.026748128 0.05198144 -0.120367676 -0.06933103
-0.021988483 0.12648092 0.13838172 -0.069710076 0.058306117 -0.038621485 -0.13091058 0.0002376908
0.05525166 -0.0039514177 -0.031014942 0.1328774 0.023902014 0.09577654 0.023411287 -0.0009116127
-0.008577988 0.13662942 -0.09785542 0.06060215 0.07008279 0.21881703 -0.028401159 0.07781199
-0.032764446 -0.05285421 -0.065324485 -0.00661974 -0.029975818 0.027155047 0.06237763 -0.049934536
0.07290326 -0.06155313 0.092324845 -0.051061336 0.097330995 -0.15000995 0.08906018 0.13911581
-0.075116985 0.032524083 0.047077607 0.082607545 0.06918162 -0.035600375 -0.036488768 -0.1370179
-0.1901638 -0.060122896 -0.010132773 -0.06407468 -0.28082448 0.021050155 -0.0838484 -0.16511866
-0.14175333 0.101925954 0.09128335 -0.12110575 -0.14589329 -0.07941511 -0.082213454 -0.0101210615
0.010629875 -0.070260845 0.11636091 0.06592301 -0.039792784 0.035266448 -0.014335265 0.07934254
-0.13773902 0.032443877 0.042476732 0.0697072 -0.113506235 0.15078697 0.115580395 -0.074561395
0.119514845 0.019867271 -0.024634738 0.11305753 0.16521436 0.16577445 0.16147478 -0.1181633
0.17366068 0.03478572 0.09101576 0.231743 0.018049438 0.07151049 -0.11931109 -0.054710418
-0.24980888 -0.14565213 0.051067505 0.07338505 0.07717704 0.08609591 0.016790139 -0.025374139
-0.08553158 0.049193125 0.024198677 0.056282382 0.033869613 -0.057068013 -0.022756374 -0.044049934
-0.21838948 -0.06881278 0.12092662 0.044064473 -0.002545604 -0.048014678 0.09082009 0.13647704
-0.18256037 0.093992785 -0.122335725 -0.19718136 -0.047977157 0.12027219 -0.012999713 0.027841
0.17754196 -0.16813742 0.17717737 -0.009578774 0.007798198 -0.019398319 -0.1120791 -0.13299306
-0.019869747 -0.1438074 0.10784215 -0.042706247 0.04929556 -0.020719167 0.08440926 -0.09762103
9.6550975e-05 -0.18884254 -0.013838933 0.16165258 -0.010493821 0.06243099 0.026619546 -0.08501108
0.052093998 0.183256 0.16708726 0.09410927 -0.047326643 0.07684662 0.10228054 -0.013731932
0.00838785 0.03576605 0.06979141 -0.11389135 -0.052201513 -0.14986111 -0.049472097 -0.06856323
-0.12110132 0.26029316 0.00038846306 0.093202166 0.02860402 -0.11734778 -0.033121895 0.065377
0.08246555 -0.037153523 0.19783533 -0.011183253 0.11095199 -0.08972458 0.022117874 -0.015003403

net.4.bias f4 [11]
00000000: 5e99 233d 576a a83c 1944 1e3d 9bb8 d03c
00000010: 68f2 3c3d 3e75 06be 17ae 6b3d 8dd4 29bc
00000020: 4546 02bd 66fa 83bd bfb2 91bb
0.039941184 0.02055852 0.03863916 0.025478652 0.046129614 -0.13130662 0.057539072 -0.010365617
-0.031805295 -0.06444244 -0.004446357
